----------------------------------------------------------------
        Layer (type)               Output Shape         Param #
================================================================
            Conv2d-1          [1, 64, 120, 120]           1,792
            Conv2d-2          [1, 64, 120, 120]          36,928
              ReLU-3          [1, 64, 120, 120]               0
            Conv2d-4          [1, 64, 120, 120]          36,928
 AdaptiveAvgPool2d-5              [1, 64, 1, 1]               0
            Conv2d-6               [1, 8, 1, 1]             520
              ReLU-7               [1, 8, 1, 1]               0
            Conv2d-8              [1, 64, 1, 1]             576
           Sigmoid-9              [1, 64, 1, 1]               0
          CALayer-10          [1, 64, 120, 120]               0
           Conv2d-11           [1, 8, 120, 120]             520
             ReLU-12           [1, 8, 120, 120]               0
           Conv2d-13           [1, 1, 120, 120]               9
          Sigmoid-14           [1, 1, 120, 120]               0
          PALayer-15          [1, 64, 120, 120]               0
            Block-16          [1, 64, 120, 120]               0
           Conv2d-17          [1, 64, 120, 120]          36,928
             ReLU-18          [1, 64, 120, 120]               0
           Conv2d-19          [1, 64, 120, 120]          36,928
AdaptiveAvgPool2d-20              [1, 64, 1, 1]               0
           Conv2d-21               [1, 8, 1, 1]             520
             ReLU-22               [1, 8, 1, 1]               0
           Conv2d-23              [1, 64, 1, 1]             576
          Sigmoid-24              [1, 64, 1, 1]               0
          CALayer-25          [1, 64, 120, 120]               0
           Conv2d-26           [1, 8, 120, 120]             520
             ReLU-27           [1, 8, 120, 120]               0
           Conv2d-28           [1, 1, 120, 120]               9
          Sigmoid-29           [1, 1, 120, 120]               0
          PALayer-30          [1, 64, 120, 120]               0
            Block-31          [1, 64, 120, 120]               0
           Conv2d-32          [1, 64, 120, 120]          36,928
             ReLU-33          [1, 64, 120, 120]               0
           Conv2d-34          [1, 64, 120, 120]          36,928
AdaptiveAvgPool2d-35              [1, 64, 1, 1]               0
           Conv2d-36               [1, 8, 1, 1]             520
             ReLU-37               [1, 8, 1, 1]               0
           Conv2d-38              [1, 64, 1, 1]             576
          Sigmoid-39              [1, 64, 1, 1]               0
          CALayer-40          [1, 64, 120, 120]               0
           Conv2d-41           [1, 8, 120, 120]             520
             ReLU-42           [1, 8, 120, 120]               0
           Conv2d-43           [1, 1, 120, 120]               9
          Sigmoid-44           [1, 1, 120, 120]               0
          PALayer-45          [1, 64, 120, 120]               0
            Block-46          [1, 64, 120, 120]               0
           Conv2d-47          [1, 64, 120, 120]          36,928
             ReLU-48          [1, 64, 120, 120]               0
           Conv2d-49          [1, 64, 120, 120]          36,928
AdaptiveAvgPool2d-50              [1, 64, 1, 1]               0
           Conv2d-51               [1, 8, 1, 1]             520
             ReLU-52               [1, 8, 1, 1]               0
           Conv2d-53              [1, 64, 1, 1]             576
          Sigmoid-54              [1, 64, 1, 1]               0
          CALayer-55          [1, 64, 120, 120]               0
           Conv2d-56           [1, 8, 120, 120]             520
             ReLU-57           [1, 8, 120, 120]               0
           Conv2d-58           [1, 1, 120, 120]               9
          Sigmoid-59           [1, 1, 120, 120]               0
          PALayer-60          [1, 64, 120, 120]               0
            Block-61          [1, 64, 120, 120]               0
           Conv2d-62          [1, 64, 120, 120]          36,928
             ReLU-63          [1, 64, 120, 120]               0
           Conv2d-64          [1, 64, 120, 120]          36,928
AdaptiveAvgPool2d-65              [1, 64, 1, 1]               0
           Conv2d-66               [1, 8, 1, 1]             520
             ReLU-67               [1, 8, 1, 1]               0
           Conv2d-68              [1, 64, 1, 1]             576
          Sigmoid-69              [1, 64, 1, 1]               0
          CALayer-70          [1, 64, 120, 120]               0
           Conv2d-71           [1, 8, 120, 120]             520
             ReLU-72           [1, 8, 120, 120]               0
           Conv2d-73           [1, 1, 120, 120]               9
          Sigmoid-74           [1, 1, 120, 120]               0
          PALayer-75          [1, 64, 120, 120]               0
            Block-76          [1, 64, 120, 120]               0
           Conv2d-77          [1, 64, 120, 120]          36,928
             ReLU-78          [1, 64, 120, 120]               0
           Conv2d-79          [1, 64, 120, 120]          36,928
AdaptiveAvgPool2d-80              [1, 64, 1, 1]               0
           Conv2d-81               [1, 8, 1, 1]             520
             ReLU-82               [1, 8, 1, 1]               0
           Conv2d-83              [1, 64, 1, 1]             576
          Sigmoid-84              [1, 64, 1, 1]               0
          CALayer-85          [1, 64, 120, 120]               0
           Conv2d-86           [1, 8, 120, 120]             520
             ReLU-87           [1, 8, 120, 120]               0
           Conv2d-88           [1, 1, 120, 120]               9
          Sigmoid-89           [1, 1, 120, 120]               0
          PALayer-90          [1, 64, 120, 120]               0
            Block-91          [1, 64, 120, 120]               0
           Conv2d-92          [1, 64, 120, 120]          36,928
             ReLU-93          [1, 64, 120, 120]               0
           Conv2d-94          [1, 64, 120, 120]          36,928
AdaptiveAvgPool2d-95              [1, 64, 1, 1]               0
           Conv2d-96               [1, 8, 1, 1]             520
             ReLU-97               [1, 8, 1, 1]               0
           Conv2d-98              [1, 64, 1, 1]             576
          Sigmoid-99              [1, 64, 1, 1]               0
         CALayer-100          [1, 64, 120, 120]               0
          Conv2d-101           [1, 8, 120, 120]             520
            ReLU-102           [1, 8, 120, 120]               0
          Conv2d-103           [1, 1, 120, 120]               9
         Sigmoid-104           [1, 1, 120, 120]               0
         PALayer-105          [1, 64, 120, 120]               0
           Block-106          [1, 64, 120, 120]               0
          Conv2d-107          [1, 64, 120, 120]          36,928
            ReLU-108          [1, 64, 120, 120]               0
          Conv2d-109          [1, 64, 120, 120]          36,928
AdaptiveAvgPool2d-110              [1, 64, 1, 1]               0
          Conv2d-111               [1, 8, 1, 1]             520
            ReLU-112               [1, 8, 1, 1]               0
          Conv2d-113              [1, 64, 1, 1]             576
         Sigmoid-114              [1, 64, 1, 1]               0
         CALayer-115          [1, 64, 120, 120]               0
          Conv2d-116           [1, 8, 120, 120]             520
            ReLU-117           [1, 8, 120, 120]               0
          Conv2d-118           [1, 1, 120, 120]               9
         Sigmoid-119           [1, 1, 120, 120]               0
         PALayer-120          [1, 64, 120, 120]               0
           Block-121          [1, 64, 120, 120]               0
          Conv2d-122          [1, 64, 120, 120]          36,928
            ReLU-123          [1, 64, 120, 120]               0
          Conv2d-124          [1, 64, 120, 120]          36,928
AdaptiveAvgPool2d-125              [1, 64, 1, 1]               0
          Conv2d-126               [1, 8, 1, 1]             520
            ReLU-127               [1, 8, 1, 1]               0
          Conv2d-128              [1, 64, 1, 1]             576
         Sigmoid-129              [1, 64, 1, 1]               0
         CALayer-130          [1, 64, 120, 120]               0
          Conv2d-131           [1, 8, 120, 120]             520
            ReLU-132           [1, 8, 120, 120]               0
          Conv2d-133           [1, 1, 120, 120]               9
         Sigmoid-134           [1, 1, 120, 120]               0
         PALayer-135          [1, 64, 120, 120]               0
           Block-136          [1, 64, 120, 120]               0
          Conv2d-137          [1, 64, 120, 120]          36,928
            ReLU-138          [1, 64, 120, 120]               0
          Conv2d-139          [1, 64, 120, 120]          36,928
AdaptiveAvgPool2d-140              [1, 64, 1, 1]               0
          Conv2d-141               [1, 8, 1, 1]             520
            ReLU-142               [1, 8, 1, 1]               0
          Conv2d-143              [1, 64, 1, 1]             576
         Sigmoid-144              [1, 64, 1, 1]               0
         CALayer-145          [1, 64, 120, 120]               0
          Conv2d-146           [1, 8, 120, 120]             520
            ReLU-147           [1, 8, 120, 120]               0
          Conv2d-148           [1, 1, 120, 120]               9
         Sigmoid-149           [1, 1, 120, 120]               0
         PALayer-150          [1, 64, 120, 120]               0
           Block-151          [1, 64, 120, 120]               0
          Conv2d-152          [1, 64, 120, 120]          36,928
            ReLU-153          [1, 64, 120, 120]               0
          Conv2d-154          [1, 64, 120, 120]          36,928
AdaptiveAvgPool2d-155              [1, 64, 1, 1]               0
          Conv2d-156               [1, 8, 1, 1]             520
            ReLU-157               [1, 8, 1, 1]               0
          Conv2d-158              [1, 64, 1, 1]             576
         Sigmoid-159              [1, 64, 1, 1]               0
         CALayer-160          [1, 64, 120, 120]               0
          Conv2d-161           [1, 8, 120, 120]             520
            ReLU-162           [1, 8, 120, 120]               0
          Conv2d-163           [1, 1, 120, 120]               9
         Sigmoid-164           [1, 1, 120, 120]               0
         PALayer-165          [1, 64, 120, 120]               0
           Block-166          [1, 64, 120, 120]               0
          Conv2d-167          [1, 64, 120, 120]          36,928
            ReLU-168          [1, 64, 120, 120]               0
          Conv2d-169          [1, 64, 120, 120]          36,928
AdaptiveAvgPool2d-170              [1, 64, 1, 1]               0
          Conv2d-171               [1, 8, 1, 1]             520
            ReLU-172               [1, 8, 1, 1]               0
          Conv2d-173              [1, 64, 1, 1]             576
         Sigmoid-174              [1, 64, 1, 1]               0
         CALayer-175          [1, 64, 120, 120]               0
          Conv2d-176           [1, 8, 120, 120]             520
            ReLU-177           [1, 8, 120, 120]               0
          Conv2d-178           [1, 1, 120, 120]               9
         Sigmoid-179           [1, 1, 120, 120]               0
         PALayer-180          [1, 64, 120, 120]               0
           Block-181          [1, 64, 120, 120]               0
          Conv2d-182          [1, 64, 120, 120]          36,928
            ReLU-183          [1, 64, 120, 120]               0
          Conv2d-184          [1, 64, 120, 120]          36,928
AdaptiveAvgPool2d-185              [1, 64, 1, 1]               0
          Conv2d-186               [1, 8, 1, 1]             520
            ReLU-187               [1, 8, 1, 1]               0
          Conv2d-188              [1, 64, 1, 1]             576
         Sigmoid-189              [1, 64, 1, 1]               0
         CALayer-190          [1, 64, 120, 120]               0
          Conv2d-191           [1, 8, 120, 120]             520
            ReLU-192           [1, 8, 120, 120]               0
          Conv2d-193           [1, 1, 120, 120]               9
         Sigmoid-194           [1, 1, 120, 120]               0
         PALayer-195          [1, 64, 120, 120]               0
           Block-196          [1, 64, 120, 120]               0
          Conv2d-197          [1, 64, 120, 120]          36,928
            ReLU-198          [1, 64, 120, 120]               0
          Conv2d-199          [1, 64, 120, 120]          36,928
AdaptiveAvgPool2d-200              [1, 64, 1, 1]               0
          Conv2d-201               [1, 8, 1, 1]             520
            ReLU-202               [1, 8, 1, 1]               0
          Conv2d-203              [1, 64, 1, 1]             576
         Sigmoid-204              [1, 64, 1, 1]               0
         CALayer-205          [1, 64, 120, 120]               0
          Conv2d-206           [1, 8, 120, 120]             520
            ReLU-207           [1, 8, 120, 120]               0
          Conv2d-208           [1, 1, 120, 120]               9
         Sigmoid-209           [1, 1, 120, 120]               0
         PALayer-210          [1, 64, 120, 120]               0
           Block-211          [1, 64, 120, 120]               0
          Conv2d-212          [1, 64, 120, 120]          36,928
            ReLU-213          [1, 64, 120, 120]               0
          Conv2d-214          [1, 64, 120, 120]          36,928
AdaptiveAvgPool2d-215              [1, 64, 1, 1]               0
          Conv2d-216               [1, 8, 1, 1]             520
            ReLU-217               [1, 8, 1, 1]               0
          Conv2d-218              [1, 64, 1, 1]             576
         Sigmoid-219              [1, 64, 1, 1]               0
         CALayer-220          [1, 64, 120, 120]               0
          Conv2d-221           [1, 8, 120, 120]             520
            ReLU-222           [1, 8, 120, 120]               0
          Conv2d-223           [1, 1, 120, 120]               9
         Sigmoid-224           [1, 1, 120, 120]               0
         PALayer-225          [1, 64, 120, 120]               0
           Block-226          [1, 64, 120, 120]               0
          Conv2d-227          [1, 64, 120, 120]          36,928
            ReLU-228          [1, 64, 120, 120]               0
          Conv2d-229          [1, 64, 120, 120]          36,928
AdaptiveAvgPool2d-230              [1, 64, 1, 1]               0
          Conv2d-231               [1, 8, 1, 1]             520
            ReLU-232               [1, 8, 1, 1]               0
          Conv2d-233              [1, 64, 1, 1]             576
         Sigmoid-234              [1, 64, 1, 1]               0
         CALayer-235          [1, 64, 120, 120]               0
          Conv2d-236           [1, 8, 120, 120]             520
            ReLU-237           [1, 8, 120, 120]               0
          Conv2d-238           [1, 1, 120, 120]               9
         Sigmoid-239           [1, 1, 120, 120]               0
         PALayer-240          [1, 64, 120, 120]               0
           Block-241          [1, 64, 120, 120]               0
          Conv2d-242          [1, 64, 120, 120]          36,928
            ReLU-243          [1, 64, 120, 120]               0
          Conv2d-244          [1, 64, 120, 120]          36,928
AdaptiveAvgPool2d-245              [1, 64, 1, 1]               0
          Conv2d-246               [1, 8, 1, 1]             520
            ReLU-247               [1, 8, 1, 1]               0
          Conv2d-248              [1, 64, 1, 1]             576
         Sigmoid-249              [1, 64, 1, 1]               0
         CALayer-250          [1, 64, 120, 120]               0
          Conv2d-251           [1, 8, 120, 120]             520
            ReLU-252           [1, 8, 120, 120]               0
          Conv2d-253           [1, 1, 120, 120]               9
         Sigmoid-254           [1, 1, 120, 120]               0
         PALayer-255          [1, 64, 120, 120]               0
           Block-256          [1, 64, 120, 120]               0
          Conv2d-257          [1, 64, 120, 120]          36,928
            ReLU-258          [1, 64, 120, 120]               0
          Conv2d-259          [1, 64, 120, 120]          36,928
AdaptiveAvgPool2d-260              [1, 64, 1, 1]               0
          Conv2d-261               [1, 8, 1, 1]             520
            ReLU-262               [1, 8, 1, 1]               0
          Conv2d-263              [1, 64, 1, 1]             576
         Sigmoid-264              [1, 64, 1, 1]               0
         CALayer-265          [1, 64, 120, 120]               0
          Conv2d-266           [1, 8, 120, 120]             520
            ReLU-267           [1, 8, 120, 120]               0
          Conv2d-268           [1, 1, 120, 120]               9
         Sigmoid-269           [1, 1, 120, 120]               0
         PALayer-270          [1, 64, 120, 120]               0
           Block-271          [1, 64, 120, 120]               0
          Conv2d-272          [1, 64, 120, 120]          36,928
            ReLU-273          [1, 64, 120, 120]               0
          Conv2d-274          [1, 64, 120, 120]          36,928
AdaptiveAvgPool2d-275              [1, 64, 1, 1]               0
          Conv2d-276               [1, 8, 1, 1]             520
            ReLU-277               [1, 8, 1, 1]               0
          Conv2d-278              [1, 64, 1, 1]             576
         Sigmoid-279              [1, 64, 1, 1]               0
         CALayer-280          [1, 64, 120, 120]               0
          Conv2d-281           [1, 8, 120, 120]             520
            ReLU-282           [1, 8, 120, 120]               0
          Conv2d-283           [1, 1, 120, 120]               9
         Sigmoid-284           [1, 1, 120, 120]               0
         PALayer-285          [1, 64, 120, 120]               0
           Block-286          [1, 64, 120, 120]               0
          Conv2d-287          [1, 64, 120, 120]          36,928
           Group-288          [1, 64, 120, 120]               0
          Conv2d-289          [1, 64, 120, 120]          36,928
            ReLU-290          [1, 64, 120, 120]               0
          Conv2d-291          [1, 64, 120, 120]          36,928
AdaptiveAvgPool2d-292              [1, 64, 1, 1]               0
          Conv2d-293               [1, 8, 1, 1]             520
            ReLU-294               [1, 8, 1, 1]               0
          Conv2d-295              [1, 64, 1, 1]             576
         Sigmoid-296              [1, 64, 1, 1]               0
         CALayer-297          [1, 64, 120, 120]               0
          Conv2d-298           [1, 8, 120, 120]             520
            ReLU-299           [1, 8, 120, 120]               0
          Conv2d-300           [1, 1, 120, 120]               9
         Sigmoid-301           [1, 1, 120, 120]               0
         PALayer-302          [1, 64, 120, 120]               0
           Block-303          [1, 64, 120, 120]               0
          Conv2d-304          [1, 64, 120, 120]          36,928
            ReLU-305          [1, 64, 120, 120]               0
          Conv2d-306          [1, 64, 120, 120]          36,928
AdaptiveAvgPool2d-307              [1, 64, 1, 1]               0
          Conv2d-308               [1, 8, 1, 1]             520
            ReLU-309               [1, 8, 1, 1]               0
          Conv2d-310              [1, 64, 1, 1]             576
         Sigmoid-311              [1, 64, 1, 1]               0
         CALayer-312          [1, 64, 120, 120]               0
          Conv2d-313           [1, 8, 120, 120]             520
            ReLU-314           [1, 8, 120, 120]               0
          Conv2d-315           [1, 1, 120, 120]               9
         Sigmoid-316           [1, 1, 120, 120]               0
         PALayer-317          [1, 64, 120, 120]               0
           Block-318          [1, 64, 120, 120]               0
          Conv2d-319          [1, 64, 120, 120]          36,928
            ReLU-320          [1, 64, 120, 120]               0
          Conv2d-321          [1, 64, 120, 120]          36,928
AdaptiveAvgPool2d-322              [1, 64, 1, 1]               0
          Conv2d-323               [1, 8, 1, 1]             520
            ReLU-324               [1, 8, 1, 1]               0
          Conv2d-325              [1, 64, 1, 1]             576
         Sigmoid-326              [1, 64, 1, 1]               0
         CALayer-327          [1, 64, 120, 120]               0
          Conv2d-328           [1, 8, 120, 120]             520
            ReLU-329           [1, 8, 120, 120]               0
          Conv2d-330           [1, 1, 120, 120]               9
         Sigmoid-331           [1, 1, 120, 120]               0
         PALayer-332          [1, 64, 120, 120]               0
           Block-333          [1, 64, 120, 120]               0
          Conv2d-334          [1, 64, 120, 120]          36,928
            ReLU-335          [1, 64, 120, 120]               0
          Conv2d-336          [1, 64, 120, 120]          36,928
AdaptiveAvgPool2d-337              [1, 64, 1, 1]               0
          Conv2d-338               [1, 8, 1, 1]             520
            ReLU-339               [1, 8, 1, 1]               0
          Conv2d-340              [1, 64, 1, 1]             576
         Sigmoid-341              [1, 64, 1, 1]               0
         CALayer-342          [1, 64, 120, 120]               0
          Conv2d-343           [1, 8, 120, 120]             520
            ReLU-344           [1, 8, 120, 120]               0
          Conv2d-345           [1, 1, 120, 120]               9
         Sigmoid-346           [1, 1, 120, 120]               0
         PALayer-347          [1, 64, 120, 120]               0
           Block-348          [1, 64, 120, 120]               0
          Conv2d-349          [1, 64, 120, 120]          36,928
            ReLU-350          [1, 64, 120, 120]               0
          Conv2d-351          [1, 64, 120, 120]          36,928
AdaptiveAvgPool2d-352              [1, 64, 1, 1]               0
          Conv2d-353               [1, 8, 1, 1]             520
            ReLU-354               [1, 8, 1, 1]               0
          Conv2d-355              [1, 64, 1, 1]             576
         Sigmoid-356              [1, 64, 1, 1]               0
         CALayer-357          [1, 64, 120, 120]               0
          Conv2d-358           [1, 8, 120, 120]             520
            ReLU-359           [1, 8, 120, 120]               0
          Conv2d-360           [1, 1, 120, 120]               9
         Sigmoid-361           [1, 1, 120, 120]               0
         PALayer-362          [1, 64, 120, 120]               0
           Block-363          [1, 64, 120, 120]               0
          Conv2d-364          [1, 64, 120, 120]          36,928
            ReLU-365          [1, 64, 120, 120]               0
          Conv2d-366          [1, 64, 120, 120]          36,928
AdaptiveAvgPool2d-367              [1, 64, 1, 1]               0
          Conv2d-368               [1, 8, 1, 1]             520
            ReLU-369               [1, 8, 1, 1]               0
          Conv2d-370              [1, 64, 1, 1]             576
         Sigmoid-371              [1, 64, 1, 1]               0
         CALayer-372          [1, 64, 120, 120]               0
          Conv2d-373           [1, 8, 120, 120]             520
            ReLU-374           [1, 8, 120, 120]               0
          Conv2d-375           [1, 1, 120, 120]               9
         Sigmoid-376           [1, 1, 120, 120]               0
         PALayer-377          [1, 64, 120, 120]               0
           Block-378          [1, 64, 120, 120]               0
          Conv2d-379          [1, 64, 120, 120]          36,928
            ReLU-380          [1, 64, 120, 120]               0
          Conv2d-381          [1, 64, 120, 120]          36,928
AdaptiveAvgPool2d-382              [1, 64, 1, 1]               0
          Conv2d-383               [1, 8, 1, 1]             520
            ReLU-384               [1, 8, 1, 1]               0
          Conv2d-385              [1, 64, 1, 1]             576
         Sigmoid-386              [1, 64, 1, 1]               0
         CALayer-387          [1, 64, 120, 120]               0
          Conv2d-388           [1, 8, 120, 120]             520
            ReLU-389           [1, 8, 120, 120]               0
          Conv2d-390           [1, 1, 120, 120]               9
         Sigmoid-391           [1, 1, 120, 120]               0
         PALayer-392          [1, 64, 120, 120]               0
           Block-393          [1, 64, 120, 120]               0
          Conv2d-394          [1, 64, 120, 120]          36,928
            ReLU-395          [1, 64, 120, 120]               0
          Conv2d-396          [1, 64, 120, 120]          36,928
AdaptiveAvgPool2d-397              [1, 64, 1, 1]               0
          Conv2d-398               [1, 8, 1, 1]             520
            ReLU-399               [1, 8, 1, 1]               0
          Conv2d-400              [1, 64, 1, 1]             576
         Sigmoid-401              [1, 64, 1, 1]               0
         CALayer-402          [1, 64, 120, 120]               0
          Conv2d-403           [1, 8, 120, 120]             520
            ReLU-404           [1, 8, 120, 120]               0
          Conv2d-405           [1, 1, 120, 120]               9
         Sigmoid-406           [1, 1, 120, 120]               0
         PALayer-407          [1, 64, 120, 120]               0
           Block-408          [1, 64, 120, 120]               0
          Conv2d-409          [1, 64, 120, 120]          36,928
            ReLU-410          [1, 64, 120, 120]               0
          Conv2d-411          [1, 64, 120, 120]          36,928
AdaptiveAvgPool2d-412              [1, 64, 1, 1]               0
          Conv2d-413               [1, 8, 1, 1]             520
            ReLU-414               [1, 8, 1, 1]               0
          Conv2d-415              [1, 64, 1, 1]             576
         Sigmoid-416              [1, 64, 1, 1]               0
         CALayer-417          [1, 64, 120, 120]               0
          Conv2d-418           [1, 8, 120, 120]             520
            ReLU-419           [1, 8, 120, 120]               0
          Conv2d-420           [1, 1, 120, 120]               9
         Sigmoid-421           [1, 1, 120, 120]               0
         PALayer-422          [1, 64, 120, 120]               0
           Block-423          [1, 64, 120, 120]               0
          Conv2d-424          [1, 64, 120, 120]          36,928
            ReLU-425          [1, 64, 120, 120]               0
          Conv2d-426          [1, 64, 120, 120]          36,928
AdaptiveAvgPool2d-427              [1, 64, 1, 1]               0
          Conv2d-428               [1, 8, 1, 1]             520
            ReLU-429               [1, 8, 1, 1]               0
          Conv2d-430              [1, 64, 1, 1]             576
         Sigmoid-431              [1, 64, 1, 1]               0
         CALayer-432          [1, 64, 120, 120]               0
          Conv2d-433           [1, 8, 120, 120]             520
            ReLU-434           [1, 8, 120, 120]               0
          Conv2d-435           [1, 1, 120, 120]               9
         Sigmoid-436           [1, 1, 120, 120]               0
         PALayer-437          [1, 64, 120, 120]               0
           Block-438          [1, 64, 120, 120]               0
          Conv2d-439          [1, 64, 120, 120]          36,928
            ReLU-440          [1, 64, 120, 120]               0
          Conv2d-441          [1, 64, 120, 120]          36,928
AdaptiveAvgPool2d-442              [1, 64, 1, 1]               0
          Conv2d-443               [1, 8, 1, 1]             520
            ReLU-444               [1, 8, 1, 1]               0
          Conv2d-445              [1, 64, 1, 1]             576
         Sigmoid-446              [1, 64, 1, 1]               0
         CALayer-447          [1, 64, 120, 120]               0
          Conv2d-448           [1, 8, 120, 120]             520
            ReLU-449           [1, 8, 120, 120]               0
          Conv2d-450           [1, 1, 120, 120]               9
         Sigmoid-451           [1, 1, 120, 120]               0
         PALayer-452          [1, 64, 120, 120]               0
           Block-453          [1, 64, 120, 120]               0
          Conv2d-454          [1, 64, 120, 120]          36,928
            ReLU-455          [1, 64, 120, 120]               0
          Conv2d-456          [1, 64, 120, 120]          36,928
AdaptiveAvgPool2d-457              [1, 64, 1, 1]               0
          Conv2d-458               [1, 8, 1, 1]             520
            ReLU-459               [1, 8, 1, 1]               0
          Conv2d-460              [1, 64, 1, 1]             576
         Sigmoid-461              [1, 64, 1, 1]               0
         CALayer-462          [1, 64, 120, 120]               0
          Conv2d-463           [1, 8, 120, 120]             520
            ReLU-464           [1, 8, 120, 120]               0
          Conv2d-465           [1, 1, 120, 120]               9
         Sigmoid-466           [1, 1, 120, 120]               0
         PALayer-467          [1, 64, 120, 120]               0
           Block-468          [1, 64, 120, 120]               0
          Conv2d-469          [1, 64, 120, 120]          36,928
            ReLU-470          [1, 64, 120, 120]               0
          Conv2d-471          [1, 64, 120, 120]          36,928
AdaptiveAvgPool2d-472              [1, 64, 1, 1]               0
          Conv2d-473               [1, 8, 1, 1]             520
            ReLU-474               [1, 8, 1, 1]               0
          Conv2d-475              [1, 64, 1, 1]             576
         Sigmoid-476              [1, 64, 1, 1]               0
         CALayer-477          [1, 64, 120, 120]               0
          Conv2d-478           [1, 8, 120, 120]             520
            ReLU-479           [1, 8, 120, 120]               0
          Conv2d-480           [1, 1, 120, 120]               9
         Sigmoid-481           [1, 1, 120, 120]               0
         PALayer-482          [1, 64, 120, 120]               0
           Block-483          [1, 64, 120, 120]               0
          Conv2d-484          [1, 64, 120, 120]          36,928
            ReLU-485          [1, 64, 120, 120]               0
          Conv2d-486          [1, 64, 120, 120]          36,928
AdaptiveAvgPool2d-487              [1, 64, 1, 1]               0
          Conv2d-488               [1, 8, 1, 1]             520
            ReLU-489               [1, 8, 1, 1]               0
          Conv2d-490              [1, 64, 1, 1]             576
         Sigmoid-491              [1, 64, 1, 1]               0
         CALayer-492          [1, 64, 120, 120]               0
          Conv2d-493           [1, 8, 120, 120]             520
            ReLU-494           [1, 8, 120, 120]               0
          Conv2d-495           [1, 1, 120, 120]               9
         Sigmoid-496           [1, 1, 120, 120]               0
         PALayer-497          [1, 64, 120, 120]               0
           Block-498          [1, 64, 120, 120]               0
          Conv2d-499          [1, 64, 120, 120]          36,928
            ReLU-500          [1, 64, 120, 120]               0
          Conv2d-501          [1, 64, 120, 120]          36,928
AdaptiveAvgPool2d-502              [1, 64, 1, 1]               0
          Conv2d-503               [1, 8, 1, 1]             520
            ReLU-504               [1, 8, 1, 1]               0
          Conv2d-505              [1, 64, 1, 1]             576
         Sigmoid-506              [1, 64, 1, 1]               0
         CALayer-507          [1, 64, 120, 120]               0
          Conv2d-508           [1, 8, 120, 120]             520
            ReLU-509           [1, 8, 120, 120]               0
          Conv2d-510           [1, 1, 120, 120]               9
         Sigmoid-511           [1, 1, 120, 120]               0
         PALayer-512          [1, 64, 120, 120]               0
           Block-513          [1, 64, 120, 120]               0
          Conv2d-514          [1, 64, 120, 120]          36,928
            ReLU-515          [1, 64, 120, 120]               0
          Conv2d-516          [1, 64, 120, 120]          36,928
AdaptiveAvgPool2d-517              [1, 64, 1, 1]               0
          Conv2d-518               [1, 8, 1, 1]             520
            ReLU-519               [1, 8, 1, 1]               0
          Conv2d-520              [1, 64, 1, 1]             576
         Sigmoid-521              [1, 64, 1, 1]               0
         CALayer-522          [1, 64, 120, 120]               0
          Conv2d-523           [1, 8, 120, 120]             520
            ReLU-524           [1, 8, 120, 120]               0
          Conv2d-525           [1, 1, 120, 120]               9
         Sigmoid-526           [1, 1, 120, 120]               0
         PALayer-527          [1, 64, 120, 120]               0
           Block-528          [1, 64, 120, 120]               0
          Conv2d-529          [1, 64, 120, 120]          36,928
            ReLU-530          [1, 64, 120, 120]               0
          Conv2d-531          [1, 64, 120, 120]          36,928
AdaptiveAvgPool2d-532              [1, 64, 1, 1]               0
          Conv2d-533               [1, 8, 1, 1]             520
            ReLU-534               [1, 8, 1, 1]               0
          Conv2d-535              [1, 64, 1, 1]             576
         Sigmoid-536              [1, 64, 1, 1]               0
         CALayer-537          [1, 64, 120, 120]               0
          Conv2d-538           [1, 8, 120, 120]             520
            ReLU-539           [1, 8, 120, 120]               0
          Conv2d-540           [1, 1, 120, 120]               9
         Sigmoid-541           [1, 1, 120, 120]               0
         PALayer-542          [1, 64, 120, 120]               0
           Block-543          [1, 64, 120, 120]               0
          Conv2d-544          [1, 64, 120, 120]          36,928
            ReLU-545          [1, 64, 120, 120]               0
          Conv2d-546          [1, 64, 120, 120]          36,928
AdaptiveAvgPool2d-547              [1, 64, 1, 1]               0
          Conv2d-548               [1, 8, 1, 1]             520
            ReLU-549               [1, 8, 1, 1]               0
          Conv2d-550              [1, 64, 1, 1]             576
         Sigmoid-551              [1, 64, 1, 1]               0
         CALayer-552          [1, 64, 120, 120]               0
          Conv2d-553           [1, 8, 120, 120]             520
            ReLU-554           [1, 8, 120, 120]               0
          Conv2d-555           [1, 1, 120, 120]               9
         Sigmoid-556           [1, 1, 120, 120]               0
         PALayer-557          [1, 64, 120, 120]               0
           Block-558          [1, 64, 120, 120]               0
          Conv2d-559          [1, 64, 120, 120]          36,928
            ReLU-560          [1, 64, 120, 120]               0
          Conv2d-561          [1, 64, 120, 120]          36,928
AdaptiveAvgPool2d-562              [1, 64, 1, 1]               0
          Conv2d-563               [1, 8, 1, 1]             520
            ReLU-564               [1, 8, 1, 1]               0
          Conv2d-565              [1, 64, 1, 1]             576
         Sigmoid-566              [1, 64, 1, 1]               0
         CALayer-567          [1, 64, 120, 120]               0
          Conv2d-568           [1, 8, 120, 120]             520
            ReLU-569           [1, 8, 120, 120]               0
          Conv2d-570           [1, 1, 120, 120]               9
         Sigmoid-571           [1, 1, 120, 120]               0
         PALayer-572          [1, 64, 120, 120]               0
           Block-573          [1, 64, 120, 120]               0
          Conv2d-574          [1, 64, 120, 120]          36,928
           Group-575          [1, 64, 120, 120]               0
          Conv2d-576          [1, 64, 120, 120]          36,928
            ReLU-577          [1, 64, 120, 120]               0
          Conv2d-578          [1, 64, 120, 120]          36,928
AdaptiveAvgPool2d-579              [1, 64, 1, 1]               0
          Conv2d-580               [1, 8, 1, 1]             520
            ReLU-581               [1, 8, 1, 1]               0
          Conv2d-582              [1, 64, 1, 1]             576
         Sigmoid-583              [1, 64, 1, 1]               0
         CALayer-584          [1, 64, 120, 120]               0
          Conv2d-585           [1, 8, 120, 120]             520
            ReLU-586           [1, 8, 120, 120]               0
          Conv2d-587           [1, 1, 120, 120]               9
         Sigmoid-588           [1, 1, 120, 120]               0
         PALayer-589          [1, 64, 120, 120]               0
           Block-590          [1, 64, 120, 120]               0
          Conv2d-591          [1, 64, 120, 120]          36,928
            ReLU-592          [1, 64, 120, 120]               0
          Conv2d-593          [1, 64, 120, 120]          36,928
AdaptiveAvgPool2d-594              [1, 64, 1, 1]               0
          Conv2d-595               [1, 8, 1, 1]             520
            ReLU-596               [1, 8, 1, 1]               0
          Conv2d-597              [1, 64, 1, 1]             576
         Sigmoid-598              [1, 64, 1, 1]               0
         CALayer-599          [1, 64, 120, 120]               0
          Conv2d-600           [1, 8, 120, 120]             520
            ReLU-601           [1, 8, 120, 120]               0
          Conv2d-602           [1, 1, 120, 120]               9
         Sigmoid-603           [1, 1, 120, 120]               0
         PALayer-604          [1, 64, 120, 120]               0
           Block-605          [1, 64, 120, 120]               0
          Conv2d-606          [1, 64, 120, 120]          36,928
            ReLU-607          [1, 64, 120, 120]               0
          Conv2d-608          [1, 64, 120, 120]          36,928
AdaptiveAvgPool2d-609              [1, 64, 1, 1]               0
          Conv2d-610               [1, 8, 1, 1]             520
            ReLU-611               [1, 8, 1, 1]               0
          Conv2d-612              [1, 64, 1, 1]             576
         Sigmoid-613              [1, 64, 1, 1]               0
         CALayer-614          [1, 64, 120, 120]               0
          Conv2d-615           [1, 8, 120, 120]             520
            ReLU-616           [1, 8, 120, 120]               0
          Conv2d-617           [1, 1, 120, 120]               9
         Sigmoid-618           [1, 1, 120, 120]               0
         PALayer-619          [1, 64, 120, 120]               0
           Block-620          [1, 64, 120, 120]               0
          Conv2d-621          [1, 64, 120, 120]          36,928
            ReLU-622          [1, 64, 120, 120]               0
          Conv2d-623          [1, 64, 120, 120]          36,928
AdaptiveAvgPool2d-624              [1, 64, 1, 1]               0
          Conv2d-625               [1, 8, 1, 1]             520
            ReLU-626               [1, 8, 1, 1]               0
          Conv2d-627              [1, 64, 1, 1]             576
         Sigmoid-628              [1, 64, 1, 1]               0
         CALayer-629          [1, 64, 120, 120]               0
          Conv2d-630           [1, 8, 120, 120]             520
            ReLU-631           [1, 8, 120, 120]               0
          Conv2d-632           [1, 1, 120, 120]               9
         Sigmoid-633           [1, 1, 120, 120]               0
         PALayer-634          [1, 64, 120, 120]               0
           Block-635          [1, 64, 120, 120]               0
          Conv2d-636          [1, 64, 120, 120]          36,928
            ReLU-637          [1, 64, 120, 120]               0
          Conv2d-638          [1, 64, 120, 120]          36,928
AdaptiveAvgPool2d-639              [1, 64, 1, 1]               0
          Conv2d-640               [1, 8, 1, 1]             520
            ReLU-641               [1, 8, 1, 1]               0
          Conv2d-642              [1, 64, 1, 1]             576
         Sigmoid-643              [1, 64, 1, 1]               0
         CALayer-644          [1, 64, 120, 120]               0
          Conv2d-645           [1, 8, 120, 120]             520
            ReLU-646           [1, 8, 120, 120]               0
          Conv2d-647           [1, 1, 120, 120]               9
         Sigmoid-648           [1, 1, 120, 120]               0
         PALayer-649          [1, 64, 120, 120]               0
           Block-650          [1, 64, 120, 120]               0
          Conv2d-651          [1, 64, 120, 120]          36,928
            ReLU-652          [1, 64, 120, 120]               0
          Conv2d-653          [1, 64, 120, 120]          36,928
AdaptiveAvgPool2d-654              [1, 64, 1, 1]               0
          Conv2d-655               [1, 8, 1, 1]             520
            ReLU-656               [1, 8, 1, 1]               0
          Conv2d-657              [1, 64, 1, 1]             576
         Sigmoid-658              [1, 64, 1, 1]               0
         CALayer-659          [1, 64, 120, 120]               0
          Conv2d-660           [1, 8, 120, 120]             520
            ReLU-661           [1, 8, 120, 120]               0
          Conv2d-662           [1, 1, 120, 120]               9
         Sigmoid-663           [1, 1, 120, 120]               0
         PALayer-664          [1, 64, 120, 120]               0
           Block-665          [1, 64, 120, 120]               0
          Conv2d-666          [1, 64, 120, 120]          36,928
            ReLU-667          [1, 64, 120, 120]               0
          Conv2d-668          [1, 64, 120, 120]          36,928
AdaptiveAvgPool2d-669              [1, 64, 1, 1]               0
          Conv2d-670               [1, 8, 1, 1]             520
            ReLU-671               [1, 8, 1, 1]               0
          Conv2d-672              [1, 64, 1, 1]             576
         Sigmoid-673              [1, 64, 1, 1]               0
         CALayer-674          [1, 64, 120, 120]               0
          Conv2d-675           [1, 8, 120, 120]             520
            ReLU-676           [1, 8, 120, 120]               0
          Conv2d-677           [1, 1, 120, 120]               9
         Sigmoid-678           [1, 1, 120, 120]               0
         PALayer-679          [1, 64, 120, 120]               0
           Block-680          [1, 64, 120, 120]               0
          Conv2d-681          [1, 64, 120, 120]          36,928
            ReLU-682          [1, 64, 120, 120]               0
          Conv2d-683          [1, 64, 120, 120]          36,928
AdaptiveAvgPool2d-684              [1, 64, 1, 1]               0
          Conv2d-685               [1, 8, 1, 1]             520
            ReLU-686               [1, 8, 1, 1]               0
          Conv2d-687              [1, 64, 1, 1]             576
         Sigmoid-688              [1, 64, 1, 1]               0
         CALayer-689          [1, 64, 120, 120]               0
          Conv2d-690           [1, 8, 120, 120]             520
            ReLU-691           [1, 8, 120, 120]               0
          Conv2d-692           [1, 1, 120, 120]               9
         Sigmoid-693           [1, 1, 120, 120]               0
         PALayer-694          [1, 64, 120, 120]               0
           Block-695          [1, 64, 120, 120]               0
          Conv2d-696          [1, 64, 120, 120]          36,928
            ReLU-697          [1, 64, 120, 120]               0
          Conv2d-698          [1, 64, 120, 120]          36,928
AdaptiveAvgPool2d-699              [1, 64, 1, 1]               0
          Conv2d-700               [1, 8, 1, 1]             520
            ReLU-701               [1, 8, 1, 1]               0
          Conv2d-702              [1, 64, 1, 1]             576
         Sigmoid-703              [1, 64, 1, 1]               0
         CALayer-704          [1, 64, 120, 120]               0
          Conv2d-705           [1, 8, 120, 120]             520
            ReLU-706           [1, 8, 120, 120]               0
          Conv2d-707           [1, 1, 120, 120]               9
         Sigmoid-708           [1, 1, 120, 120]               0
         PALayer-709          [1, 64, 120, 120]               0
           Block-710          [1, 64, 120, 120]               0
          Conv2d-711          [1, 64, 120, 120]          36,928
            ReLU-712          [1, 64, 120, 120]               0
          Conv2d-713          [1, 64, 120, 120]          36,928
AdaptiveAvgPool2d-714              [1, 64, 1, 1]               0
          Conv2d-715               [1, 8, 1, 1]             520
            ReLU-716               [1, 8, 1, 1]               0
          Conv2d-717              [1, 64, 1, 1]             576
         Sigmoid-718              [1, 64, 1, 1]               0
         CALayer-719          [1, 64, 120, 120]               0
          Conv2d-720           [1, 8, 120, 120]             520
            ReLU-721           [1, 8, 120, 120]               0
          Conv2d-722           [1, 1, 120, 120]               9
         Sigmoid-723           [1, 1, 120, 120]               0
         PALayer-724          [1, 64, 120, 120]               0
           Block-725          [1, 64, 120, 120]               0
          Conv2d-726          [1, 64, 120, 120]          36,928
            ReLU-727          [1, 64, 120, 120]               0
          Conv2d-728          [1, 64, 120, 120]          36,928
AdaptiveAvgPool2d-729              [1, 64, 1, 1]               0
          Conv2d-730               [1, 8, 1, 1]             520
            ReLU-731               [1, 8, 1, 1]               0
          Conv2d-732              [1, 64, 1, 1]             576
         Sigmoid-733              [1, 64, 1, 1]               0
         CALayer-734          [1, 64, 120, 120]               0
          Conv2d-735           [1, 8, 120, 120]             520
            ReLU-736           [1, 8, 120, 120]               0
          Conv2d-737           [1, 1, 120, 120]               9
         Sigmoid-738           [1, 1, 120, 120]               0
         PALayer-739          [1, 64, 120, 120]               0
           Block-740          [1, 64, 120, 120]               0
          Conv2d-741          [1, 64, 120, 120]          36,928
            ReLU-742          [1, 64, 120, 120]               0
          Conv2d-743          [1, 64, 120, 120]          36,928
AdaptiveAvgPool2d-744              [1, 64, 1, 1]               0
          Conv2d-745               [1, 8, 1, 1]             520
            ReLU-746               [1, 8, 1, 1]               0
          Conv2d-747              [1, 64, 1, 1]             576
         Sigmoid-748              [1, 64, 1, 1]               0
         CALayer-749          [1, 64, 120, 120]               0
          Conv2d-750           [1, 8, 120, 120]             520
            ReLU-751           [1, 8, 120, 120]               0
          Conv2d-752           [1, 1, 120, 120]               9
         Sigmoid-753           [1, 1, 120, 120]               0
         PALayer-754          [1, 64, 120, 120]               0
           Block-755          [1, 64, 120, 120]               0
          Conv2d-756          [1, 64, 120, 120]          36,928
            ReLU-757          [1, 64, 120, 120]               0
          Conv2d-758          [1, 64, 120, 120]          36,928
AdaptiveAvgPool2d-759              [1, 64, 1, 1]               0
          Conv2d-760               [1, 8, 1, 1]             520
            ReLU-761               [1, 8, 1, 1]               0
          Conv2d-762              [1, 64, 1, 1]             576
         Sigmoid-763              [1, 64, 1, 1]               0
         CALayer-764          [1, 64, 120, 120]               0
          Conv2d-765           [1, 8, 120, 120]             520
            ReLU-766           [1, 8, 120, 120]               0
          Conv2d-767           [1, 1, 120, 120]               9
         Sigmoid-768           [1, 1, 120, 120]               0
         PALayer-769          [1, 64, 120, 120]               0
           Block-770          [1, 64, 120, 120]               0
          Conv2d-771          [1, 64, 120, 120]          36,928
            ReLU-772          [1, 64, 120, 120]               0
          Conv2d-773          [1, 64, 120, 120]          36,928
AdaptiveAvgPool2d-774              [1, 64, 1, 1]               0
          Conv2d-775               [1, 8, 1, 1]             520
            ReLU-776               [1, 8, 1, 1]               0
          Conv2d-777              [1, 64, 1, 1]             576
         Sigmoid-778              [1, 64, 1, 1]               0
         CALayer-779          [1, 64, 120, 120]               0
          Conv2d-780           [1, 8, 120, 120]             520
            ReLU-781           [1, 8, 120, 120]               0
          Conv2d-782           [1, 1, 120, 120]               9
         Sigmoid-783           [1, 1, 120, 120]               0
         PALayer-784          [1, 64, 120, 120]               0
           Block-785          [1, 64, 120, 120]               0
          Conv2d-786          [1, 64, 120, 120]          36,928
            ReLU-787          [1, 64, 120, 120]               0
          Conv2d-788          [1, 64, 120, 120]          36,928
AdaptiveAvgPool2d-789              [1, 64, 1, 1]               0
          Conv2d-790               [1, 8, 1, 1]             520
            ReLU-791               [1, 8, 1, 1]               0
          Conv2d-792              [1, 64, 1, 1]             576
         Sigmoid-793              [1, 64, 1, 1]               0
         CALayer-794          [1, 64, 120, 120]               0
          Conv2d-795           [1, 8, 120, 120]             520
            ReLU-796           [1, 8, 120, 120]               0
          Conv2d-797           [1, 1, 120, 120]               9
         Sigmoid-798           [1, 1, 120, 120]               0
         PALayer-799          [1, 64, 120, 120]               0
           Block-800          [1, 64, 120, 120]               0
          Conv2d-801          [1, 64, 120, 120]          36,928
            ReLU-802          [1, 64, 120, 120]               0
          Conv2d-803          [1, 64, 120, 120]          36,928
AdaptiveAvgPool2d-804              [1, 64, 1, 1]               0
          Conv2d-805               [1, 8, 1, 1]             520
            ReLU-806               [1, 8, 1, 1]               0
          Conv2d-807              [1, 64, 1, 1]             576
         Sigmoid-808              [1, 64, 1, 1]               0
         CALayer-809          [1, 64, 120, 120]               0
          Conv2d-810           [1, 8, 120, 120]             520
            ReLU-811           [1, 8, 120, 120]               0
          Conv2d-812           [1, 1, 120, 120]               9
         Sigmoid-813           [1, 1, 120, 120]               0
         PALayer-814          [1, 64, 120, 120]               0
           Block-815          [1, 64, 120, 120]               0
          Conv2d-816          [1, 64, 120, 120]          36,928
            ReLU-817          [1, 64, 120, 120]               0
          Conv2d-818          [1, 64, 120, 120]          36,928
AdaptiveAvgPool2d-819              [1, 64, 1, 1]               0
          Conv2d-820               [1, 8, 1, 1]             520
            ReLU-821               [1, 8, 1, 1]               0
          Conv2d-822              [1, 64, 1, 1]             576
         Sigmoid-823              [1, 64, 1, 1]               0
         CALayer-824          [1, 64, 120, 120]               0
          Conv2d-825           [1, 8, 120, 120]             520
            ReLU-826           [1, 8, 120, 120]               0
          Conv2d-827           [1, 1, 120, 120]               9
         Sigmoid-828           [1, 1, 120, 120]               0
         PALayer-829          [1, 64, 120, 120]               0
           Block-830          [1, 64, 120, 120]               0
          Conv2d-831          [1, 64, 120, 120]          36,928
            ReLU-832          [1, 64, 120, 120]               0
          Conv2d-833          [1, 64, 120, 120]          36,928
AdaptiveAvgPool2d-834              [1, 64, 1, 1]               0
          Conv2d-835               [1, 8, 1, 1]             520
            ReLU-836               [1, 8, 1, 1]               0
          Conv2d-837              [1, 64, 1, 1]             576
         Sigmoid-838              [1, 64, 1, 1]               0
         CALayer-839          [1, 64, 120, 120]               0
          Conv2d-840           [1, 8, 120, 120]             520
            ReLU-841           [1, 8, 120, 120]               0
          Conv2d-842           [1, 1, 120, 120]               9
         Sigmoid-843           [1, 1, 120, 120]               0
         PALayer-844          [1, 64, 120, 120]               0
           Block-845          [1, 64, 120, 120]               0
          Conv2d-846          [1, 64, 120, 120]          36,928
            ReLU-847          [1, 64, 120, 120]               0
          Conv2d-848          [1, 64, 120, 120]          36,928
AdaptiveAvgPool2d-849              [1, 64, 1, 1]               0
          Conv2d-850               [1, 8, 1, 1]             520
            ReLU-851               [1, 8, 1, 1]               0
          Conv2d-852              [1, 64, 1, 1]             576
         Sigmoid-853              [1, 64, 1, 1]               0
         CALayer-854          [1, 64, 120, 120]               0
          Conv2d-855           [1, 8, 120, 120]             520
            ReLU-856           [1, 8, 120, 120]               0
          Conv2d-857           [1, 1, 120, 120]               9
          Conv2d-866             [1, 192, 1, 1]             960
         Sigmoid-867             [1, 192, 1, 1]               0
          Conv2d-868           [1, 8, 120, 120]             520
            ReLU-869           [1, 8, 120, 120]               0
          Conv2d-870           [1, 1, 120, 120]               9
         Sigmoid-871           [1, 1, 120, 120]               0
         PALayer-872          [1, 64, 120, 120]               0
          Conv2d-873          [1, 64, 120, 120]          36,928
          Conv2d-874           [1, 3, 120, 120]           1,731
================================================================
Total params: 4,455,913
Trainable params: 4,455,913
Non-trainable params: 0
----------------------------------------------------------------
Input size (MB): 0.16
Forward/backward pass size (MB): 2583.09
Params size (MB): 17.00
Estimated Total Size (MB): 2600.25
----------------------------------------------------------------